…
  (action_head): ActionHead(
    (action_decoder): ActionDecoder(
      (layer1): Layer1(
        (W): Module(tensors=1)
        (b): Module(tensors=1)
      )
      (layer2): Layer2(
        (W): Module(tensors=1)
        (b): Module(tensors=1)
      )
    )
    (action_encoder): ActionEncoder(
      (W1): W1(
        (W): Module(tensors=1)
        (b): Module(tensors=1)
      )
      (W2): W2(
        (W): Module(tensors=1)
        (b): Module(tensors=1)
      )
      (W3): W3(
        (W): Module(tensors=1)
        (b): Module(tensors=1)
      )
    )
    (future_tokens): Linear(in_features=1536, out_features=32, bias=False)
    (model): Model(
      (proj_out_1): Linear(in_features=1536, out_features=3072, bias=True)
      (proj_out_2): Linear(in_features=1536, out_features=1024, bias=True)
      (timestep_encoder): TimestepEncoder(
        (timestep_embedder): Embeddings(
          (linear_1): Linear(in_features=256, out_features=1536, bias=True)
          (linear_2): Linear(in_features=1536, out_features=1536, bias=True)
        )
      )
      (transformer_blocks): TransformerBlocks(
        (0-15): 16 x Block(
          (attn1): Attn1(
            (to_k): Linear(in_features=2048, out_features=1536, bias=True)
            (to_out): ToOut(
              (0): Block(
              )
            )
            (to_q): Linear(in_features=1536, out_features=1536, bias=True)
            (to_v): Linear(in_features=2048, out_features=1536, bias=True)
          )
          (ff): Ff(
            (net): Net(
              (0-2): 2 x Block(
                (proj): Linear(in_features=1536, out_features=6144, bias=True)
              )
            )
          )
          (norm1): Norm1(
            (linear): Linear(in_features=1536, out_features=3072, bias=True)
          )
        )
      )
    )
    (position_embedding): Embedding(1024, 1536)
    (state_encoder): StateEncoder(
      (layer1): Layer1(
        (W): Module(tensors=1)
        (b): Module(tensors=1)
      )
      (layer2): Layer2(
        (W): Module(tensors=1)
        (b): Module(tensors=1)
      )
    )
    (vl_self_attention): VlSelfAttention(
      (transformer_blocks): TransformerBlocks(
        (0-3): 4 x Block(
          (attn1): Attn1(
            (to_k): Linear(in_features=2048, out_features=2048, bias=True)
            (to_out): ToOut(
              (0): Block(
              )
            )
            (to_q): Linear(in_features=2048, out_features=2048, bias=True)
            (to_v): Linear(in_features=2048, out_features=2048, bias=True)
          )
          (ff): Ff(
            (net): Net(
              (0-2): 2 x Block(
                (proj): Linear(in_features=2048, out_features=8192, bias=True)
              )
            )
          )
          (norm1): LayerNorm((2048,), eps=1e-05, elementwise_affine=True)
          (norm3): LayerNorm((2048,), eps=1e-05, elementwise_affine=True)
        )
      )
    )
    (vlln): Parameter(2048)
  )
  (backbone): Backbone(
    (eagle_model): EagleModel(
      (language_model): LanguageModel(
        (lm_head): Linear(in_features=2048, out_features=151680, bias=False)
        (model): Model(
          (embed_tokens): Embedding(151680, 2048)
          (layers): ModuleList(
            (0-11): 12 x TransformerBlock(
              (input_layernorm): LayerNorm((2048,), eps=1e-05, elementwise_affine=True)
              (mlp): MLP(
                (down_proj): Linear(in_features=6144, out_features=2048, bias=False)
                (gate_proj): Linear(in_features=2048, out_features=6144, bias=False)
                (up_proj): Linear(in_features=2048, out_features=6144, bias=False)
              )
              (post_attention_layernorm): LayerNorm((2048,), eps=1e-05, elementwise_affine=True)
              (self_attn): Attention(
                (k_norm): LayerNorm((128,), eps=1e-05, elementwise_affine=True)
                (k_proj): Linear(in_features=2048, out_features=1024, bias=False)
                (o_proj): Linear(in_features=2048, out_features=2048, bias=False)
                (q_norm): LayerNorm((128,), eps=1e-05, elementwise_affine=True)
                (q_proj): Linear(in_features=2048, out_features=2048, bias=False)
                (v_proj): Linear(in_features=2048, out_features=1024, bias=False)
              )
            )
          )
          (norm): LayerNorm((2048,), eps=1e-05, elementwise_affine=True)
        )
      )
      (mlp1): Mlp1(
        (0): Block(
        )
      )
      (vision_model): VisionModel(
        (vision_model): VisionModel(
          (embeddings): Embeddings(
            (patch_embedding): Conv2d(3, 1152, kernel_size=(14, 14))
            (position_embedding): Embedding(256, 1152)
          )
          (encoder): ModuleList(
            (layers): ModuleList(
              (0-26): 27 x VisionBlock(
                (layer_norm1): LayerNorm((1152,), eps=1e-05, elementwise_affine=True)
                (layer_norm2): LayerNorm((1152,), eps=1e-05, elementwise_affine=True)
                (mlp): MLP(
                  (fc1): Linear(in_features=1152, out_features=4304, bias=True)
                  (fc2): Linear(in_features=4304, out_features=1152, bias=True)
                )
                (self_attn): Attention(
                  (k_proj): Linear(in_features=1152, out_features=1152, bias=True)
                  (out_proj): Linear(in_features=1152, out_features=1152, bias=True)
                  (q_proj): Linear(in_features=1152, out_features=1152, bias=True)
                  (v_proj): Linear(in_features=1152, out_features=1152, bias=True)
                )
              )
            )
          )
          (head): Head(
            (attention): Attention(
              (in_proj_bias): Module(tensors=1)
              (in_proj_weight): Module(tensors=1)
              (out_proj): Linear(in_features=1152, out_features=1152, bias=True)
            )
            (layernorm): LayerNorm((1152,), eps=1e-05, elementwise_affine=True)
            (mlp): MLP(
              (fc1): Linear(in_features=1152, out_features=4304, bias=True)
              (fc2): Linear(in_features=4304, out_features=1152, bias=True)
            )
            (probe): Module(tensors=1)
          )
          (post_layernorm): LayerNorm((1152,), eps=1e-05, elementwise_affine=True)
        )
      )
    )
  )
)

====================================================================================================
层级参数统计 (Layer Parameters)
====================================================================================================

模块                                                           张量数        参数量                  大小             
…
